{"genre": ["rock_playlists", "pop_playlists"], "number of classes": 2, "evaluation": [0.6672146320343018, 0.546875], "parameters": {"verbose": 1, "epochs": 500, "steps": 7}, "optimizer": {"name": "Adam", "lr": 0.001}, "model": "Model: \"sequential_30\"\n_________________________________________________________________\n Layer (type)                Output Shape              Param #   \n=================================================================\n dense_150 (Dense)           (None, 128)               1536      \n                                                                 \n dense_151 (Dense)           (None, 64)                8256      \n                                                                 \n dropout_30 (Dropout)        (None, 64)                0         \n                                                                 \n dense_152 (Dense)           (None, 64)                4160      \n                                                                 \n dense_153 (Dense)           (None, 32)                2080      \n                                                                 \n layer_normalization_30 (Lay  (None, 32)               64        \n erNormalization)                                                \n                                                                 \n dense_154 (Dense)           (None, 2)                 66        \n                                                                 \n softmax_30 (Softmax)        (None, 2)                 0         \n                                                                 \n=================================================================\nTotal params: 16,162\nTrainable params: 16,162\nNon-trainable params: 0\n_________________________________________________________________"}