{"genre": ["jazz_playlists", "classical_playlists", "country_playlists", "rock_playlists", "hip_hop_playlists", "edm_playlists"], "number of classes": 6, "evaluation": [0.8868821263313293, 0.6676470637321472], "parameters": {"verbose": 1, "epochs": 500, "steps": 17}, "optimizer": {"name": "Adamax", "lr": 0.001}, "model": "Model: \"sequential_50\"\n_________________________________________________________________\n Layer (type)                Output Shape              Param #   \n=================================================================\n dense_250 (Dense)           (None, 128)               1536      \n                                                                 \n dense_251 (Dense)           (None, 64)                8256      \n                                                                 \n dropout_50 (Dropout)        (None, 64)                0         \n                                                                 \n dense_252 (Dense)           (None, 64)                4160      \n                                                                 \n dense_253 (Dense)           (None, 32)                2080      \n                                                                 \n layer_normalization_50 (Lay  (None, 32)               64        \n erNormalization)                                                \n                                                                 \n dense_254 (Dense)           (None, 6)                 198       \n                                                                 \n softmax_50 (Softmax)        (None, 6)                 0         \n                                                                 \n=================================================================\nTotal params: 16,294\nTrainable params: 16,294\nNon-trainable params: 0\n_________________________________________________________________"}