{"genre": ["indie_playlists", "pop_playlists"], "number of classes": 2, "evaluation": [0.6199317574501038, 0.6896551847457886], "parameters": {"verbose": 1, "epochs": 500, "steps": 8}, "optimizer": {"name": "Adam", "lr": 0.001}, "model": "Model: \"sequential_22\"\n_________________________________________________________________\n Layer (type)                Output Shape              Param #   \n=================================================================\n dense_110 (Dense)           (None, 128)               1536      \n                                                                 \n dense_111 (Dense)           (None, 64)                8256      \n                                                                 \n dropout_22 (Dropout)        (None, 64)                0         \n                                                                 \n dense_112 (Dense)           (None, 64)                4160      \n                                                                 \n dense_113 (Dense)           (None, 32)                2080      \n                                                                 \n layer_normalization_22 (Lay  (None, 32)               64        \n erNormalization)                                                \n                                                                 \n dense_114 (Dense)           (None, 2)                 66        \n                                                                 \n softmax_22 (Softmax)        (None, 2)                 0         \n                                                                 \n=================================================================\nTotal params: 16,162\nTrainable params: 16,162\nNon-trainable params: 0\n_________________________________________________________________"}