{"genre": ["rock_playlists", "edm_playlists"], "number of classes": 2, "evaluation": [0.5463781952857971, 0.7086614370346069], "parameters": {"verbose": 1, "epochs": 500, "steps": 7}, "optimizer": {"name": "Adam", "lr": 0.001}, "model": "Model: \"sequential_32\"\n_________________________________________________________________\n Layer (type)                Output Shape              Param #   \n=================================================================\n dense_160 (Dense)           (None, 128)               1536      \n                                                                 \n dense_161 (Dense)           (None, 64)                8256      \n                                                                 \n dropout_32 (Dropout)        (None, 64)                0         \n                                                                 \n dense_162 (Dense)           (None, 64)                4160      \n                                                                 \n dense_163 (Dense)           (None, 32)                2080      \n                                                                 \n layer_normalization_32 (Lay  (None, 32)               64        \n erNormalization)                                                \n                                                                 \n dense_164 (Dense)           (None, 2)                 66        \n                                                                 \n softmax_32 (Softmax)        (None, 2)                 0         \n                                                                 \n=================================================================\nTotal params: 16,162\nTrainable params: 16,162\nNon-trainable params: 0\n_________________________________________________________________"}