{"genre": ["country_playlists", "pop_playlists"], "number of classes": 2, "evaluation": [0.6505997776985168, 0.6486486196517944], "parameters": {"verbose": 1, "epochs": 500, "steps": 6}, "optimizer": {"name": "Adam", "lr": 0.001}, "model": "Model: \"sequential_27\"\n_________________________________________________________________\n Layer (type)                Output Shape              Param #   \n=================================================================\n dense_135 (Dense)           (None, 128)               1536      \n                                                                 \n dense_136 (Dense)           (None, 64)                8256      \n                                                                 \n dropout_27 (Dropout)        (None, 64)                0         \n                                                                 \n dense_137 (Dense)           (None, 64)                4160      \n                                                                 \n dense_138 (Dense)           (None, 32)                2080      \n                                                                 \n layer_normalization_27 (Lay  (None, 32)               64        \n erNormalization)                                                \n                                                                 \n dense_139 (Dense)           (None, 2)                 66        \n                                                                 \n softmax_27 (Softmax)        (None, 2)                 0         \n                                                                 \n=================================================================\nTotal params: 16,162\nTrainable params: 16,162\nNon-trainable params: 0\n_________________________________________________________________"}