…
azz_playlists", "classical_playlists", "indie_playlists", "country_playlists", "rock_playlists", "pop_playlists", "hip_hop_playlists", "edm_playlists"], "number of classes": 8, "evaluation": [1.175987720489502, 0.5422680377960205], "parameters": {"verbose": 1, "epochs": 500, "steps": 25}, "optimizer": {"name": "Adam", "lr": 0.001}, "model": "Model: \"sequential_36\"\n_________________________________________________________________\n Layer (type)                Output Shape              Param #   \n=================================================================\n dense_180 (Dense)           (None, 128)               1536      \n                                                                 \n dense_181 (Dense)           (None, 64)                8256      \n                                                                 \n dropout_36 (Dropout)        (None, 64)                0         \n                                                                 \n dense_182 (Dense)           (None, 64)                4160      \n                                                                 \n dense_183 (Dense)           (None, 32)                2080      \n                                                                 \n layer_normalization_36 (Lay  (None, 32)               64        \n erNormalization)                                                \n                                                                 \n dense_184 (Dense)           (None, 8)                 264       \n                                                                 \n softmax_36 (Softmax)        (None, 8)                 0         \n                                                                 \n=================================================================\nTotal params: 16,360\nTrainable params: 16,360\nNon-trainable params: 0\n_________________________________________________________________"}