{"genre": ["indie_playlists", "country_playlists"], "number of classes": 2, "evaluation": [0.5645145773887634, 0.681034505367279], "parameters": {"verbose": 1, "epochs": 500, "steps": 6}, "optimizer": {"name": "Adam", "lr": 0.001}, "model": "Model: \"sequential_19\"\n_________________________________________________________________\n Layer (type)                Output Shape              Param #   \n=================================================================\n dense_95 (Dense)            (None, 128)               1536      \n                                                                 \n dense_96 (Dense)            (None, 64)                8256      \n                                                                 \n dropout_19 (Dropout)        (None, 64)                0         \n                                                                 \n dense_97 (Dense)            (None, 64)                4160      \n                                                                 \n dense_98 (Dense)            (None, 32)                2080      \n                                                                 \n layer_normalization_19 (Lay  (None, 32)               64        \n erNormalization)                                                \n                                                                 \n dense_99 (Dense)            (None, 2)                 66        \n                                                                 \n softmax_19 (Softmax)        (None, 2)                 0         \n                                                                 \n=================================================================\nTotal params: 16,162\nTrainable params: 16,162\nNon-trainable params: 0\n_________________________________________________________________"}