{"genre": ["jazz_playlists", "rock_playlists"], "number of classes": 2, "evaluation": [0.22218723595142365, 0.9047619104385376], "parameters": {"verbose": 1, "epochs": 500, "steps": 7}, "optimizer": {"name": "Adam", "lr": 0.001}, "model": "Model: \"sequential_9\"\n_________________________________________________________________\n Layer (type)                Output Shape              Param #   \n=================================================================\n dense_45 (Dense)            (None, 128)               1536      \n                                                                 \n dense_46 (Dense)            (None, 64)                8256      \n                                                                 \n dropout_9 (Dropout)         (None, 64)                0         \n                                                                 \n dense_47 (Dense)            (None, 64)                4160      \n                                                                 \n dense_48 (Dense)            (None, 32)                2080      \n                                                                 \n layer_normalization_9 (Laye  (None, 32)               64        \n rNormalization)                                                 \n                                                                 \n dense_49 (Dense)            (None, 2)                 66        \n                                                                 \n softmax_9 (Softmax)         (None, 2)                 0         \n                                                                 \n=================================================================\nTotal params: 16,162\nTrainable params: 16,162\nNon-trainable params: 0\n_________________________________________________________________"}