{"genre": ["indie_playlists", "rock_playlists"], "number of classes": 2, "evaluation": [0.6726466417312622, 0.6390977501869202], "parameters": {"verbose": 1, "epochs": 500, "steps": 7}, "optimizer": {"name": "Adam", "lr": 0.001}, "model": "Model: \"sequential_21\"\n_________________________________________________________________\n Layer (type)                Output Shape              Param #   \n=================================================================\n dense_105 (Dense)           (None, 128)               1536      \n                                                                 \n dense_106 (Dense)           (None, 64)                8256      \n                                                                 \n dropout_21 (Dropout)        (None, 64)                0         \n                                                                 \n dense_107 (Dense)           (None, 64)                4160      \n                                                                 \n dense_108 (Dense)           (None, 32)                2080      \n                                                                 \n layer_normalization_21 (Lay  (None, 32)               64        \n erNormalization)                                                \n                                                                 \n dense_109 (Dense)           (None, 2)                 66        \n                                                                 \n softmax_21 (Softmax)        (None, 2)                 0         \n                                                                 \n=================================================================\nTotal params: 16,162\nTrainable params: 16,162\nNon-trainable params: 0\n_________________________________________________________________"}