{"genre": ["jazz_playlists", "indie_playlists"], "number of classes": 2, "evaluation": [0.35770633816719055, 0.8391608595848083], "parameters": {"verbose": 1, "epochs": 500, "steps": 8}, "optimizer": {"name": "Adam", "lr": 0.001}, "model": "Model: \"sequential_7\"\n_________________________________________________________________\n Layer (type)                Output Shape              Param #   \n=================================================================\n dense_35 (Dense)            (None, 128)               1536      \n                                                                 \n dense_36 (Dense)            (None, 64)                8256      \n                                                                 \n dropout_7 (Dropout)         (None, 64)                0         \n                                                                 \n dense_37 (Dense)            (None, 64)                4160      \n                                                                 \n dense_38 (Dense)            (None, 32)                2080      \n                                                                 \n layer_normalization_7 (Laye  (None, 32)               64        \n rNormalization)                                                 \n                                                                 \n dense_39 (Dense)            (None, 2)                 66        \n                                                                 \n softmax_7 (Softmax)         (None, 2)                 0         \n                                                                 \n=================================================================\nTotal params: 16,162\nTrainable params: 16,162\nNon-trainable params: 0\n_________________________________________________________________"}