…
zz_playlists", "classical_playlists", "indie_playlists", "country_playlists", "rock_playlists", "pop_playlists", "hip_hop_playlists", "edm_playlists"], "number of classes": 8, "evaluation": [1.2397977113723755, 0.5319587588310242], "parameters": {"verbose": 1, "epochs": 500, "steps": 25}, "optimizer": {"name": "Adam", "lr": 0.001}, "model": "Model: \"sequential_54\"\n_________________________________________________________________\n Layer (type)                Output Shape              Param #   \n=================================================================\n dense_267 (Dense)           (None, 128)               1536      \n                                                                 \n dense_268 (Dense)           (None, 64)                8256      \n                                                                 \n dropout_51 (Dropout)        (None, 64)                0         \n                                                                 \n dense_269 (Dense)           (None, 64)                4160      \n                                                                 \n dense_270 (Dense)           (None, 32)                2080      \n                                                                 \n dense_271 (Dense)           (None, 8)                 264       \n                                                                 \n softmax_54 (Softmax)        (None, 8)                 0         \n                                                                 \n=================================================================\nTotal params: 16,296\nTrainable params: 16,296\nNon-trainable params: 0\n_________________________________________________________________"}