{"genre": ["jazz_playlists", "pop_playlists"], "number of classes": 2, "evaluation": [0.15258245170116425, 0.9420289993286133], "parameters": {"verbose": 1, "epochs": 500, "steps": 7}, "optimizer": {"name": "Adam", "lr": 0.001}, "model": "Model: \"sequential_10\"\n_________________________________________________________________\n Layer (type)                Output Shape              Param #   \n=================================================================\n dense_50 (Dense)            (None, 128)               1536      \n                                                                 \n dense_51 (Dense)            (None, 64)                8256      \n                                                                 \n dropout_10 (Dropout)        (None, 64)                0         \n                                                                 \n dense_52 (Dense)            (None, 64)                4160      \n                                                                 \n dense_53 (Dense)            (None, 32)                2080      \n                                                                 \n layer_normalization_10 (Lay  (None, 32)               64        \n erNormalization)                                                \n                                                                 \n dense_54 (Dense)            (None, 2)                 66        \n                                                                 \n softmax_10 (Softmax)        (None, 2)                 0         \n                                                                 \n=================================================================\nTotal params: 16,162\nTrainable params: 16,162\nNon-trainable params: 0\n_________________________________________________________________"}