{"genre": ["pop_playlists", "edm_playlists"], "number of classes": 2, "evaluation": [0.4787863492965698, 0.7318840622901917], "parameters": {"verbose": 1, "epochs": 500, "steps": 7}, "optimizer": {"name": "Adam", "lr": 0.001}, "model": "Model: \"sequential_34\"\n_________________________________________________________________\n Layer (type)                Output Shape              Param #   \n=================================================================\n dense_170 (Dense)           (None, 128)               1536      \n                                                                 \n dense_171 (Dense)           (None, 64)                8256      \n                                                                 \n dropout_34 (Dropout)        (None, 64)                0         \n                                                                 \n dense_172 (Dense)           (None, 64)                4160      \n                                                                 \n dense_173 (Dense)           (None, 32)                2080      \n                                                                 \n layer_normalization_34 (Lay  (None, 32)               64        \n erNormalization)                                                \n                                                                 \n dense_174 (Dense)           (None, 2)                 66        \n                                                                 \n softmax_34 (Softmax)        (None, 2)                 0         \n                                                                 \n=================================================================\nTotal params: 16,162\nTrainable params: 16,162\nNon-trainable params: 0\n_________________________________________________________________"}