{"genre": ["country_playlists", "hip_hop_playlists"], "number of classes": 2, "evaluation": [0.6551931500434875, 0.6000000238418579], "parameters": {"verbose": 1, "epochs": 500, "steps": 5}, "optimizer": {"name": "Adam", "lr": 0.001}, "model": "Model: \"sequential_28\"\n_________________________________________________________________\n Layer (type)                Output Shape              Param #   \n=================================================================\n dense_140 (Dense)           (None, 128)               1536      \n                                                                 \n dense_141 (Dense)           (None, 64)                8256      \n                                                                 \n dropout_28 (Dropout)        (None, 64)                0         \n                                                                 \n dense_142 (Dense)           (None, 64)                4160      \n                                                                 \n dense_143 (Dense)           (None, 32)                2080      \n                                                                 \n layer_normalization_28 (Lay  (None, 32)               64        \n erNormalization)                                                \n                                                                 \n dense_144 (Dense)           (None, 2)                 66        \n                                                                 \n softmax_28 (Softmax)        (None, 2)                 0         \n                                                                 \n=================================================================\nTotal params: 16,162\nTrainable params: 16,162\nNon-trainable params: 0\n_________________________________________________________________"}