{"genre": ["classical_playlists", "country_playlists"], "number of classes": 2, "evaluation": [0.002843816764652729, 1.0], "parameters": {"verbose": 1, "epochs": 500, "steps": 5}, "optimizer": {"name": "Adam", "lr": 0.001}, "model": "Model: \"sequential_14\"\n_________________________________________________________________\n Layer (type)                Output Shape              Param #   \n=================================================================\n dense_70 (Dense)            (None, 128)               1536      \n                                                                 \n dense_71 (Dense)            (None, 64)                8256      \n                                                                 \n dropout_14 (Dropout)        (None, 64)                0         \n                                                                 \n dense_72 (Dense)            (None, 64)                4160      \n                                                                 \n dense_73 (Dense)            (None, 32)                2080      \n                                                                 \n layer_normalization_14 (Lay  (None, 32)               64        \n erNormalization)                                                \n                                                                 \n dense_74 (Dense)            (None, 2)                 66        \n                                                                 \n softmax_14 (Softmax)        (None, 2)                 0         \n                                                                 \n=================================================================\nTotal params: 16,162\nTrainable params: 16,162\nNon-trainable params: 0\n_________________________________________________________________"}