{"genre": ["jazz_playlists", "hip_hop_playlists"], "number of classes": 2, "evaluation": [0.22446691989898682, 0.9180327653884888], "parameters": {"verbose": 1, "epochs": 500, "steps": 7}, "optimizer": {"name": "Adam", "lr": 0.001}, "model": "Model: \"sequential_11\"\n_________________________________________________________________\n Layer (type)                Output Shape              Param #   \n=================================================================\n dense_55 (Dense)            (None, 128)               1536      \n                                                                 \n dense_56 (Dense)            (None, 64)                8256      \n                                                                 \n dropout_11 (Dropout)        (None, 64)                0         \n                                                                 \n dense_57 (Dense)            (None, 64)                4160      \n                                                                 \n dense_58 (Dense)            (None, 32)                2080      \n                                                                 \n layer_normalization_11 (Lay  (None, 32)               64        \n erNormalization)                                                \n                                                                 \n dense_59 (Dense)            (None, 2)                 66        \n                                                                 \n softmax_11 (Softmax)        (None, 2)                 0         \n                                                                 \n=================================================================\nTotal params: 16,162\nTrainable params: 16,162\nNon-trainable params: 0\n_________________________________________________________________"}