{"genre": ["jazz_playlists", "country_playlists"], "number of classes": 2, "evaluation": [0.1614772230386734, 0.9541284441947937], "parameters": {"verbose": 1, "epochs": 500, "steps": 6}, "optimizer": {"name": "Adam", "lr": 0.001}, "model": "Model: \"sequential_8\"\n_________________________________________________________________\n Layer (type)                Output Shape              Param #   \n=================================================================\n dense_40 (Dense)            (None, 128)               1536      \n                                                                 \n dense_41 (Dense)            (None, 64)                8256      \n                                                                 \n dropout_8 (Dropout)         (None, 64)                0         \n                                                                 \n dense_42 (Dense)            (None, 64)                4160      \n                                                                 \n dense_43 (Dense)            (None, 32)                2080      \n                                                                 \n layer_normalization_8 (Laye  (None, 32)               64        \n rNormalization)                                                 \n                                                                 \n dense_44 (Dense)            (None, 2)                 66        \n                                                                 \n softmax_8 (Softmax)         (None, 2)                 0         \n                                                                 \n=================================================================\nTotal params: 16,162\nTrainable params: 16,162\nNon-trainable params: 0\n_________________________________________________________________"}