{"genre": ["country_playlists", "edm_playlists"], "number of classes": 2, "evaluation": [0.41568461060523987, 0.7981651425361633], "parameters": {"verbose": 1, "epochs": 500, "steps": 6}, "optimizer": {"name": "Adam", "lr": 0.001}, "model": "Model: \"sequential_29\"\n_________________________________________________________________\n Layer (type)                Output Shape              Param #   \n=================================================================\n dense_145 (Dense)           (None, 128)               1536      \n                                                                 \n dense_146 (Dense)           (None, 64)                8256      \n                                                                 \n dropout_29 (Dropout)        (None, 64)                0         \n                                                                 \n dense_147 (Dense)           (None, 64)                4160      \n                                                                 \n dense_148 (Dense)           (None, 32)                2080      \n                                                                 \n layer_normalization_29 (Lay  (None, 32)               64        \n erNormalization)                                                \n                                                                 \n dense_149 (Dense)           (None, 2)                 66        \n                                                                 \n softmax_29 (Softmax)        (None, 2)                 0         \n                                                                 \n=================================================================\nTotal params: 16,162\nTrainable params: 16,162\nNon-trainable params: 0\n_________________________________________________________________"}