{"genre": ["classical_playlists", "rock_playlists"], "number of classes": 2, "evaluation": [0.04426391422748566, 0.9727272987365723], "parameters": {"verbose": 1, "epochs": 500, "steps": 6}, "optimizer": {"name": "Adam", "lr": 0.001}, "model": "Model: \"sequential_15\"\n_________________________________________________________________\n Layer (type)                Output Shape              Param #   \n=================================================================\n dense_75 (Dense)            (None, 128)               1536      \n                                                                 \n dense_76 (Dense)            (None, 64)                8256      \n                                                                 \n dropout_15 (Dropout)        (None, 64)                0         \n                                                                 \n dense_77 (Dense)            (None, 64)                4160      \n                                                                 \n dense_78 (Dense)            (None, 32)                2080      \n                                                                 \n layer_normalization_15 (Lay  (None, 32)               64        \n erNormalization)                                                \n                                                                 \n dense_79 (Dense)            (None, 2)                 66        \n                                                                 \n softmax_15 (Softmax)        (None, 2)                 0         \n                                                                 \n=================================================================\nTotal params: 16,162\nTrainable params: 16,162\nNon-trainable params: 0\n_________________________________________________________________"}