…
aylists", "classical_playlists", "indie_playlists", "country_playlists", "rock_playlists", "pop_playlists", "hip_hop_playlists", "edm_playlists"], "number of classes": 8, "evaluation": [1.9655392169952393, 0.17731958627700806], "parameters": {"verbose": 1, "epochs": 500, "steps": 25}, "optimizer": {"name": "Adadelta", "lr": 0.001}, "model": "Model: \"sequential_41\"\n_________________________________________________________________\n Layer (type)                Output Shape              Param #   \n=================================================================\n dense_205 (Dense)           (None, 128)               1536      \n                                                                 \n dense_206 (Dense)           (None, 64)                8256      \n                                                                 \n dropout_41 (Dropout)        (None, 64)                0         \n                                                                 \n dense_207 (Dense)           (None, 64)                4160      \n                                                                 \n dense_208 (Dense)           (None, 32)                2080      \n                                                                 \n layer_normalization_41 (Lay  (None, 32)               64        \n erNormalization)                                                \n                                                                 \n dense_209 (Dense)           (None, 8)                 264       \n                                                                 \n softmax_41 (Softmax)        (None, 8)                 0         \n                                                                 \n=================================================================\nTotal params: 16,360\nTrainable params: 16,360\nNon-trainable params: 0\n_________________________________________________________________"}