{"genre": ["classical_playlists", "edm_playlists"], "number of classes": 2, "evaluation": [0.05956493690609932, 0.9916666746139526], "parameters": {"verbose": 1, "epochs": 500, "steps": 6}, "optimizer": {"name": "Adam", "lr": 0.001}, "model": "Model: \"sequential_18\"\n_________________________________________________________________\n Layer (type)                Output Shape              Param #   \n=================================================================\n dense_90 (Dense)            (None, 128)               1536      \n                                                                 \n dense_91 (Dense)            (None, 64)                8256      \n                                                                 \n dropout_18 (Dropout)        (None, 64)                0         \n                                                                 \n dense_92 (Dense)            (None, 64)                4160      \n                                                                 \n dense_93 (Dense)            (None, 32)                2080      \n                                                                 \n layer_normalization_18 (Lay  (None, 32)               64        \n erNormalization)                                                \n                                                                 \n dense_94 (Dense)            (None, 2)                 66        \n                                                                 \n softmax_18 (Softmax)        (None, 2)                 0         \n                                                                 \n=================================================================\nTotal params: 16,162\nTrainable params: 16,162\nNon-trainable params: 0\n_________________________________________________________________"}