{"genre": ["classical_playlists", "indie_playlists"], "number of classes": 2, "evaluation": [0.06924616545438766, 0.9763779640197754], "parameters": {"verbose": 1, "epochs": 500, "steps": 7}, "optimizer": {"name": "Adam", "lr": 0.001}, "model": "Model: \"sequential_13\"\n_________________________________________________________________\n Layer (type)                Output Shape              Param #   \n=================================================================\n dense_65 (Dense)            (None, 128)               1536      \n                                                                 \n dense_66 (Dense)            (None, 64)                8256      \n                                                                 \n dropout_13 (Dropout)        (None, 64)                0         \n                                                                 \n dense_67 (Dense)            (None, 64)                4160      \n                                                                 \n dense_68 (Dense)            (None, 32)                2080      \n                                                                 \n layer_normalization_13 (Lay  (None, 32)               64        \n erNormalization)                                                \n                                                                 \n dense_69 (Dense)            (None, 2)                 66        \n                                                                 \n softmax_13 (Softmax)        (None, 2)                 0         \n                                                                 \n=================================================================\nTotal params: 16,162\nTrainable params: 16,162\nNon-trainable params: 0\n_________________________________________________________________"}