{"genre": ["country_playlists", "rock_playlists"], "number of classes": 2, "evaluation": [0.6329166293144226, 0.7373737096786499], "parameters": {"verbose": 1, "epochs": 500, "steps": 5}, "optimizer": {"name": "Adam", "lr": 0.001}, "model": "Model: \"sequential_26\"\n_________________________________________________________________\n Layer (type)                Output Shape              Param #   \n=================================================================\n dense_130 (Dense)           (None, 128)               1536      \n                                                                 \n dense_131 (Dense)           (None, 64)                8256      \n                                                                 \n dropout_26 (Dropout)        (None, 64)                0         \n                                                                 \n dense_132 (Dense)           (None, 64)                4160      \n                                                                 \n dense_133 (Dense)           (None, 32)                2080      \n                                                                 \n layer_normalization_26 (Lay  (None, 32)               64        \n erNormalization)                                                \n                                                                 \n dense_134 (Dense)           (None, 2)                 66        \n                                                                 \n softmax_26 (Softmax)        (None, 2)                 0         \n                                                                 \n=================================================================\nTotal params: 16,162\nTrainable params: 16,162\nNon-trainable params: 0\n_________________________________________________________________"}