{"genre": ["indie_playlists", "edm_playlists"], "number of classes": 2, "evaluation": [0.4262910783290863, 0.7692307829856873], "parameters": {"verbose": 1, "epochs": 500, "steps": 8}, "optimizer": {"name": "Adam", "lr": 0.001}, "model": "Model: \"sequential_24\"\n_________________________________________________________________\n Layer (type)                Output Shape              Param #   \n=================================================================\n dense_120 (Dense)           (None, 128)               1536      \n                                                                 \n dense_121 (Dense)           (None, 64)                8256      \n                                                                 \n dropout_24 (Dropout)        (None, 64)                0         \n                                                                 \n dense_122 (Dense)           (None, 64)                4160      \n                                                                 \n dense_123 (Dense)           (None, 32)                2080      \n                                                                 \n layer_normalization_24 (Lay  (None, 32)               64        \n erNormalization)                                                \n                                                                 \n dense_124 (Dense)           (None, 2)                 66        \n                                                                 \n softmax_24 (Softmax)        (None, 2)                 0         \n                                                                 \n=================================================================\nTotal params: 16,162\nTrainable params: 16,162\nNon-trainable params: 0\n_________________________________________________________________"}