{"genre": ["jazz_playlists", "classical_playlists", "country_playlists", "rock_playlists", "hip_hop_playlists", "edm_playlists"], "number of classes": 6, "evaluation": [0.6215739846229553, 0.7411764860153198], "parameters": {"verbose": 1, "epochs": 500, "steps": 17}, "optimizer": {"name": "Adam", "lr": 0.001}, "model": "Model: \"sequential_52\"\n_________________________________________________________________\n Layer (type)                Output Shape              Param #   \n=================================================================\n dense_259 (Dense)           (None, 128)               1536      \n                                                                 \n dense_260 (Dense)           (None, 64)                8256      \n                                                                 \n dense_261 (Dense)           (None, 32)                2080      \n                                                                 \n layer_normalization_52 (Lay  (None, 32)               64        \n erNormalization)                                                \n                                                                 \n dense_262 (Dense)           (None, 6)                 198       \n                                                                 \n softmax_52 (Softmax)        (None, 6)                 0         \n                                                                 \n=================================================================\nTotal params: 12,134\nTrainable params: 12,134\nNon-trainable params: 0\n_________________________________________________________________"}