{"genre": ["classical_playlists", "pop_playlists"], "number of classes": 2, "evaluation": [0.027102742344141006, 0.9918032884597778], "parameters": {"verbose": 1, "epochs": 500, "steps": 7}, "optimizer": {"name": "Adam", "lr": 0.001}, "model": "Model: \"sequential_16\"\n_________________________________________________________________\n Layer (type)                Output Shape              Param #   \n=================================================================\n dense_80 (Dense)            (None, 128)               1536      \n                                                                 \n dense_81 (Dense)            (None, 64)                8256      \n                                                                 \n dropout_16 (Dropout)        (None, 64)                0         \n                                                                 \n dense_82 (Dense)            (None, 64)                4160      \n                                                                 \n dense_83 (Dense)            (None, 32)                2080      \n                                                                 \n layer_normalization_16 (Lay  (None, 32)               64        \n erNormalization)                                                \n                                                                 \n dense_84 (Dense)            (None, 2)                 66        \n                                                                 \n softmax_16 (Softmax)        (None, 2)                 0         \n                                                                 \n=================================================================\nTotal params: 16,162\nTrainable params: 16,162\nNon-trainable params: 0\n_________________________________________________________________"}