{"genre": ["jazz_playlists", "classical_playlists"], "number of classes": 2, "evaluation": [0.37079480290412903, 0.8416666388511658], "parameters": {"verbose": 1, "epochs": 500, "steps": 6}, "optimizer": {"name": "Adam", "lr": 0.001}, "model": "Model: \"sequential_6\"\n_________________________________________________________________\n Layer (type)                Output Shape              Param #   \n=================================================================\n dense_30 (Dense)            (None, 128)               1536      \n                                                                 \n dense_31 (Dense)            (None, 64)                8256      \n                                                                 \n dropout_6 (Dropout)         (None, 64)                0         \n                                                                 \n dense_32 (Dense)            (None, 64)                4160      \n                                                                 \n dense_33 (Dense)            (None, 32)                2080      \n                                                                 \n layer_normalization_6 (Laye  (None, 32)               64        \n rNormalization)                                                 \n                                                                 \n dense_34 (Dense)            (None, 2)                 66        \n                                                                 \n softmax_6 (Softmax)         (None, 2)                 0         \n                                                                 \n=================================================================\nTotal params: 16,162\nTrainable params: 16,162\nNon-trainable params: 0\n_________________________________________________________________"}