{"genre": ["jazz_playlists", "classical_playlists", "country_playlists", "rock_playlists", "hip_hop_playlists", "edm_playlists"], "number of classes": 6, "evaluation": [0.7492298483848572, 0.7176470756530762], "parameters": {"verbose": 1, "epochs": 500, "steps": 17}, "optimizer": {"name": "Adam", "lr": 0.001}, "model": "Model: \"sequential_37\"\n_________________________________________________________________\n Layer (type)                Output Shape              Param #   \n=================================================================\n dense_185 (Dense)           (None, 128)               1536      \n                                                                 \n dense_186 (Dense)           (None, 64)                8256      \n                                                                 \n dropout_37 (Dropout)        (None, 64)                0         \n                                                                 \n dense_187 (Dense)           (None, 64)                4160      \n                                                                 \n dense_188 (Dense)           (None, 32)                2080      \n                                                                 \n layer_normalization_37 (Lay  (None, 32)               64        \n erNormalization)                                                \n                                                                 \n dense_189 (Dense)           (None, 6)                 198       \n                                                                 \n softmax_37 (Softmax)        (None, 6)                 0         \n                                                                 \n=================================================================\nTotal params: 16,294\nTrainable params: 16,294\nNon-trainable params: 0\n_________________________________________________________________"}