{"genre": ["indie_playlists", "hip_hop_playlists"], "number of classes": 2, "evaluation": [0.6348109841346741, 0.6201550364494324], "parameters": {"verbose": 1, "epochs": 500, "steps": 7}, "optimizer": {"name": "Adam", "lr": 0.001}, "model": "Model: \"sequential_23\"\n_________________________________________________________________\n Layer (type)                Output Shape              Param #   \n=================================================================\n dense_115 (Dense)           (None, 128)               1536      \n                                                                 \n dense_116 (Dense)           (None, 64)                8256      \n                                                                 \n dropout_23 (Dropout)        (None, 64)                0         \n                                                                 \n dense_117 (Dense)           (None, 64)                4160      \n                                                                 \n dense_118 (Dense)           (None, 32)                2080      \n                                                                 \n layer_normalization_23 (Lay  (None, 32)               64        \n erNormalization)                                                \n                                                                 \n dense_119 (Dense)           (None, 2)                 66        \n                                                                 \n softmax_23 (Softmax)        (None, 2)                 0         \n                                                                 \n=================================================================\nTotal params: 16,162\nTrainable params: 16,162\nNon-trainable params: 0\n_________________________________________________________________"}