{"genre": ["classical_playlists", "hip_hop_playlists"], "number of classes": 2, "evaluation": [0.005019954405725002, 1.0], "parameters": {"verbose": 1, "epochs": 500, "steps": 6}, "optimizer": {"name": "Adam", "lr": 0.001}, "model": "Model: \"sequential_17\"\n_________________________________________________________________\n Layer (type)                Output Shape              Param #   \n=================================================================\n dense_85 (Dense)            (None, 128)               1536      \n                                                                 \n dense_86 (Dense)            (None, 64)                8256      \n                                                                 \n dropout_17 (Dropout)        (None, 64)                0         \n                                                                 \n dense_87 (Dense)            (None, 64)                4160      \n                                                                 \n dense_88 (Dense)            (None, 32)                2080      \n                                                                 \n layer_normalization_17 (Lay  (None, 32)               64        \n erNormalization)                                                \n                                                                 \n dense_89 (Dense)            (None, 2)                 66        \n                                                                 \n softmax_17 (Softmax)        (None, 2)                 0         \n                                                                 \n=================================================================\nTotal params: 16,162\nTrainable params: 16,162\nNon-trainable params: 0\n_________________________________________________________________"}