{"genre": ["classical_playlists", "rock_playlists", "hip_hop_playlists", "edm_playlists"], "number of classes": 4, "evaluation": [0.4987650215625763, 0.806034505367279], "parameters": {"verbose": 1, "epochs": 500, "steps": 12}, "optimizer": {"name": "Adam", "lr": 0.001}, "model": "Model: \"sequential_58\"\n_________________________________________________________________\n Layer (type)                Output Shape              Param #   \n=================================================================\n dense_287 (Dense)           (None, 64)                768       \n                                                                 \n dense_288 (Dense)           (None, 32)                2080      \n                                                                 \n dropout_55 (Dropout)        (None, 32)                0         \n                                                                 \n dense_289 (Dense)           (None, 32)                1056      \n                                                                 \n dense_290 (Dense)           (None, 16)                528       \n                                                                 \n layer_normalization_57 (Lay  (None, 16)               32        \n erNormalization)                                                \n                                                                 \n dense_291 (Dense)           (None, 4)                 68        \n                                                                 \n softmax_58 (Softmax)        (None, 4)                 0         \n                                                                 \n=================================================================\nTotal params: 4,532\nTrainable params: 4,532\nNon-trainable params: 0\n_________________________________________________________________"}