…
zz_playlists", "classical_playlists", "indie_playlists", "country_playlists", "rock_playlists", "pop_playlists", "hip_hop_playlists", "edm_playlists"], "number of classes": 8, "evaluation": [1.5302469730377197, 0.3711340129375458], "parameters": {"verbose": 1, "epochs": 1500, "steps": 25}, "optimizer": {"name": "SGD", "lr": 0.001}, "model": "Model: \"sequential_48\"\n_________________________________________________________________\n Layer (type)                Output Shape              Param #   \n=================================================================\n dense_240 (Dense)           (None, 128)               1536      \n                                                                 \n dense_241 (Dense)           (None, 64)                8256      \n                                                                 \n dropout_48 (Dropout)        (None, 64)                0         \n                                                                 \n dense_242 (Dense)           (None, 64)                4160      \n                                                                 \n dense_243 (Dense)           (None, 32)                2080      \n                                                                 \n layer_normalization_48 (Lay  (None, 32)               64        \n erNormalization)                                                \n                                                                 \n dense_244 (Dense)           (None, 8)                 264       \n                                                                 \n softmax_48 (Softmax)        (None, 8)                 0         \n                                                                 \n=================================================================\nTotal params: 16,360\nTrainable params: 16,360\nNon-trainable params: 0\n_________________________________________________________________"}