{"genre": ["jazz_playlists", "classical_playlists", "country_playlists", "rock_playlists", "hip_hop_playlists", "edm_playlists"], "number of classes": 6, "evaluation": [0.7055582404136658, 0.6911764740943909], "parameters": {"verbose": 1, "epochs": 500, "steps": 17}, "optimizer": {"name": "Adam", "lr": 0.001}, "model": "Model: \"sequential_56\"\n_________________________________________________________________\n Layer (type)                Output Shape              Param #   \n=================================================================\n dense_277 (Dense)           (None, 96)                1152      \n                                                                 \n dense_278 (Dense)           (None, 48)                4656      \n                                                                 \n dropout_53 (Dropout)        (None, 48)                0         \n                                                                 \n dense_279 (Dense)           (None, 48)                2352      \n                                                                 \n dense_280 (Dense)           (None, 24)                1176      \n                                                                 \n layer_normalization_55 (Lay  (None, 24)               48        \n erNormalization)                                                \n                                                                 \n dense_281 (Dense)           (None, 6)                 150       \n                                                                 \n softmax_56 (Softmax)        (None, 6)                 0         \n                                                                 \n=================================================================\nTotal params: 9,534\nTrainable params: 9,534\nNon-trainable params: 0\n_________________________________________________________________"}