{"genre": ["rock_playlists", "hip_hop_playlists"], "number of classes": 2, "evaluation": [0.6840887665748596, 0.6696428656578064], "parameters": {"verbose": 1, "epochs": 500, "steps": 6}, "optimizer": {"name": "Adam", "lr": 0.001}, "model": "Model: \"sequential_31\"\n_________________________________________________________________\n Layer (type)                Output Shape              Param #   \n=================================================================\n dense_155 (Dense)           (None, 128)               1536      \n                                                                 \n dense_156 (Dense)           (None, 64)                8256      \n                                                                 \n dropout_31 (Dropout)        (None, 64)                0         \n                                                                 \n dense_157 (Dense)           (None, 64)                4160      \n                                                                 \n dense_158 (Dense)           (None, 32)                2080      \n                                                                 \n layer_normalization_31 (Lay  (None, 32)               64        \n erNormalization)                                                \n                                                                 \n dense_159 (Dense)           (None, 2)                 66        \n                                                                 \n softmax_31 (Softmax)        (None, 2)                 0         \n                                                                 \n=================================================================\nTotal params: 16,162\nTrainable params: 16,162\nNon-trainable params: 0\n_________________________________________________________________"}