{"genre": ["hip_hop_playlists", "edm_playlists"], "number of classes": 2, "evaluation": [0.48142361640930176, 0.7704917788505554], "parameters": {"verbose": 1, "epochs": 500, "steps": 7}, "optimizer": {"name": "Adam", "lr": 0.001}, "model": "Model: \"sequential_35\"\n_________________________________________________________________\n Layer (type)                Output Shape              Param #   \n=================================================================\n dense_175 (Dense)           (None, 128)               1536      \n                                                                 \n dense_176 (Dense)           (None, 64)                8256      \n                                                                 \n dropout_35 (Dropout)        (None, 64)                0         \n                                                                 \n dense_177 (Dense)           (None, 64)                4160      \n                                                                 \n dense_178 (Dense)           (None, 32)                2080      \n                                                                 \n layer_normalization_35 (Lay  (None, 32)               64        \n erNormalization)                                                \n                                                                 \n dense_179 (Dense)           (None, 2)                 66        \n                                                                 \n softmax_35 (Softmax)        (None, 2)                 0         \n                                                                 \n=================================================================\nTotal params: 16,162\nTrainable params: 16,162\nNon-trainable params: 0\n_________________________________________________________________"}