{"genre": ["classical_playlists", "rock_playlists", "hip_hop_playlists", "edm_playlists"], "number of classes": 4, "evaluation": [1.1847867965698242, 0.4482758641242981], "parameters": {"verbose": 1, "epochs": 500, "steps": 12}, "optimizer": {"name": "Adadelta", "lr": 0.001}, "model": "Model: \"sequential_39\"\n_________________________________________________________________\n Layer (type)                Output Shape              Param #   \n=================================================================\n dense_195 (Dense)           (None, 128)               1536      \n                                                                 \n dense_196 (Dense)           (None, 64)                8256      \n                                                                 \n dropout_39 (Dropout)        (None, 64)                0         \n                                                                 \n dense_197 (Dense)           (None, 64)                4160      \n                                                                 \n dense_198 (Dense)           (None, 32)                2080      \n                                                                 \n layer_normalization_39 (Lay  (None, 32)               64        \n erNormalization)                                                \n                                                                 \n dense_199 (Dense)           (None, 4)                 132       \n                                                                 \n softmax_39 (Softmax)        (None, 4)                 0         \n                                                                 \n=================================================================\nTotal params: 16,228\nTrainable params: 16,228\nNon-trainable params: 0\n_________________________________________________________________"}